project3/NetWorkThings/or2d-normmodel-007.onnx (onnx, 396037 bytes, 20 tensors)

conv1.weight f4 [10, 1, 5, 5]
00000000: cfb4 c8bd bc9e 133c 59d2 bdbd 6d90 de3d
00000010: f497 1a3e 906a 17be 0b23 493e 70e2 c53d
00000020: 3531 3c3e 16a2 973d 4059 ae3d 5ed2 36bd
00000030: e357 013e 4bbd 573d 2946 25bd e955 e23b
00000040: 73d5 14be a95f c0bd 779e efbd 1e91 0b3e
00000050: cf65 35be 73ac 06be 3de4 e1bd 1c90 e6bd
00000060: 7266 403d 5c40 54be 6fdf 2c3e 14b5 1fbe
00000070: 2b29 393e 3769 b43d 7ed6 89bd 36db 003e
00000080: 6b48 ac3d 2344 4c3e 0dc7 8e3d 9c6b a2bd
00000090: 57e6 8a3d c174 3fbd 012b f93d 8c37 553e
000000a0: f33a 8c3d 3bb9 01be d2c4 dd3d 5caf 8f3d
000000b0: 37f8 363e 96ab 1abe f043 66be be82 aabd
000000c0: 6dbc ecbd 61a7 603e 979e 853d f9c3 ec3d
000000d0: a050 073e 119e c13d 279f 0b3e 9c1c 07be
000000e0: ef4d 523d 6cc6 b8bd eb5c 393d bdd0 ddbd
000000f0: b654 bb3c 0f75 8cbc b50f 6d3e 044a dbbd
00000100: 18a3 38be b9df 3cbe 536b 103e 472d 2f3e
00000110: faaf 523e 5f31 6dbe db5a 70be 348d 4bbe
00000120: 5e0b e7bd 88d3 f63d 8779 71bb 39d2 833e
00000130: f3e5 5fbd 2dee 29be 5ec5 523d 71fc 98bd
00000140: fc57 843e 1a0d 473d 155b 153e 5b4d 13be
00000150: 3088 8dbd ff96 a93d 66d4 553d dea4 863a
00000160: c7fa 2d3e f8ac 4a3e 6d15 5cbe 0778 3cbe
00000170: bd97 053e 08a0 2bbd c487 be3b 7e2d 5ebe
00000180: 7bb0 25be 7ebc 613c 01ed ebbc 23bb 10be
00000190: 3219 d33d 0990 f1bd ce56 08be f5ca a9bd
000001a0: c768 a1bd 150b b1bd 9473 aa3d 521e 6fbc
000001b0: c51a 353d 81fb babd 0640 a1bd 3cf4 d0bd
000001c0: 9859 28bd 9704 3abe 6a35 30bd 51f1 31bd
000001d0: dbe9 683c aa58 cbbd b791 98bd e89c dcbd
000001e0: c6a3 66bd 3105 60bd 77ad eabc c53c 10be
000001f0: 7cda 6e3e 6e4a 52bd 3edb 063e 27ed 143d
00000200: 5b4a 39be 4160 223e 8ed2 71bd 0bdb d2bd
00000210: 089d 58be 9a9f 61be 1031 b43d d201 1dbd
00000220: 2c58 ec3d 1e75 47be 77e6 4b3e 4549 70be
00000230: e372 443d 51f8 623d 7044 083e 843b 643e
00000240: bfa5 923e c2ba 3cbe cbaf 403d 78e4 c3bd
00000250: 7947 3a3c 3bf6 25be c6ce 333e 1ba4 01be
00000260: 5f40 b43d f3ca 9e3c 2b21 883d 830f 03be
00000270: 8a3d 3a3e 710a 563d e887 0e3d e0b9 2fbe
00000280: 8f08 c93c da73 a6bd 36aa f2bd 9e9c 483e
00000290: 9d5a db3d d7c4 1cbe 2483 2dbe 5ded 43bd
000002a0: 36ce 193e fd9c 143d d5e4 f3bd 0a74 b9bd
000002b0: 96c7 25be 94e3 ff3d b610 673e dbc8 56be
000002c0: affd a13d 2dbf 163e 55db 5e3c 39d6 c5bd
000002d0: 1f6c df3d 5b88 053e 99a1 c63d c0f8 3bbd
000002e0: 2b45 c9bd 51f7 833b 2364 55bd a777 8dbd
000002f0: 7ac7 1c3e f0b3 393e 36d9 1dbd 784f eebc
00000300: 4ee9 783c 2dda d1ba ff7f 663d f2a9 233d
00000310: 046d 2fbe 7e57 9abd 02fd 173e cc46 473d
00000320: 7b2e 5c3d d666 b8bd 0a92 07be 6fa4 3dbe
00000330: dae0 dbbd 1595 233e fd0d 2b3e ca9f 4e3d
00000340: 3097 5fbe 4844 3dbe e6a8 4c3d eee1 743e
00000350: 2e7c 7b3d 93aa 6dbd e065 aa3d 68ee 88bd
00000360: d12b 9fbd e431 613e 2f5a 4dbd 71a3 e3bc
00000370: 1144 5abe 4272 153e 653e 1a3e 5cc0 973d
00000380: da89 16be ef5b 21be a5ad 1abe 0743 f73d
00000390: 65a5 c83d e340 493e e6a8 f63d ccb5 1e3c
000003a0: a3a8 5dbd 1076 21be bc13 ecbd 4820 34be
000003b0: f2a2 483d 12ed d7bd 39a2 27bc ad8a 72bd
000003c0: 7b35 1dbd 0885 11be e9dc efbd f4ba 8f3d
000003d0: 3719 2fbd ffae 123e cc45 5dbd 2832 05be
000003e0: 78d0 86bd 6b73 e5bd
-0.098001115 0.009010013 -0.09268636 0.10867391 0.15097028 -0.14786744 0.19642274 0.0966233
0.18378146 0.07403962 0.08513117 -0.044634216 0.12631182 0.05267076 -0.040350113 0.006907214
-0.1453455 -0.09393246 -0.11700147 0.13629577 -0.17714618 -0.13151722 -0.11029861 -0.112579554
0.0469727 -0.20727676 0.16882108 -0.1559642 0.1808211 0.08809131 -0.06730364 0.12583622
0.0841225 0.19947867 0.0697156 -0.07930681 0.06782215 -0.046742205 0.121664055 0.2082197
0.06847181 -0.12668316 0.10828556 0.07015869 0.17868124 -0.15104517 -0.22486854 -0.08325718
-0.11559377 0.2193885 0.06524389 0.11560816 0.1321435 0.09453977 0.1363493 -0.13194507
0.051343855 -0.09022221 0.04525463 -0.10830829 0.022867542 -0.017145662 0.23150523 -0.10707477
-0.18030965 -0.18444718 0.14103441 0.17107116 0.20574942 -0.23163365 -0.23472159 -0.19878083
-0.11281465 0.12052065 -0.0036846118 0.25746325 -0.054662656 -0.16594763 0.051457755 -0.074700244
0.25848377 0.04859648 0.14585526 -0.14384978 -0.06910741 0.08280753 0.052204512 0.0010272523
0.16990195 0.19792545 -0.21492548 -0.18405162 0.13046165 -0.041900665 0.0058145244 -0.21697041
-0.16180603 0.01377785 -0.028799536 -0.14133887 0.1030754 -0.11795051 -0.13314363 -0.08290664
-0.07881313 -0.08644692 0.08322826 -0.014594631 0.044214983 -0.09130002 -0.078735396 -0.10202834
-0.04110107 -0.18165813 -0.04301969 -0.043443028 0.014215912 -0.09929021 -0.07449668 -0.10772115
-0.05630853 -0.05469245 -0.028647168 -0.14085682 0.23325533 -0.051340513 0.13169572 0.03635898
-0.1809477 0.1585703 -0.05903869 -0.102956854 -0.21153653 -0.2203354 0.087984204 -0.038331814
0.11540255 -0.1947827 0.19912134 -0.2346545 0.047961127 0.055412594 0.13307357 0.22288328
0.2864208 -0.18430617 0.04704265 -0.09565061 0.0113695795 -0.1620721 0.17559347 -0.12660258
0.0880134 0.019383883 0.06646951 -0.12798886 0.18187538 0.05225605 0.03479758 -0.1716075
0.024540214 -0.08127566 -0.118488714 0.19590995 0.107106425 -0.15309463 -0.16944557 -0.04783379
0.1502007 0.03628253 -0.119088806 -0.09055336 -0.16189417 0.12494579 0.22564968 -0.20975058
0.079097144 0.14721365 0.0136020975 -0.0966 0.10909294 0.13040297 0.09698791 -0.045891523
-0.09827646 0.004027285 -0.05209745 -0.069075875 0.1531047 0.18135047 -0.038537227 -0.029090628
0.015192343 -0.0016010456 0.05627441 0.039956994 -0.1713143 -0.07536219 0.14842609 0.0486515
0.053755265 -0.090039894 -0.13239303 -0.18519758 -0.107362464 0.15974839 0.16704555 0.050445355
-0.21835017 -0.18483078 0.04996576 0.2391431 0.061397724 -0.058024 0.08320212 -0.066860974
-0.07772029 0.21991688 -0.050134834 -0.027787896 -0.21315028 0.14594367 0.15062864 0.074097365
-0.14701024 -0.15757726 -0.15105303 0.12073331 0.097971715 0.19653659 0.120439336 0.009686898
-0.054115903 -0.15767694 -0.115272015 -0.1759044 0.04898352 -0.105432644 -0.010231548 -0.059214283
-0.03838108 -0.14210904 -0.11712057 0.0701808 -0.042748656 0.14324568 -0.05402164 -0.13007414
-0.06582731 -0.11203655

conv1.bias f4 [10]
00000000: 307e e4bd 3550 33be 6e71 8f3d b6dd 14be
00000010: fc64 b8bd 84e1 03bb f160 9e3d af37 25be
00000020: 0984 05bb 85ce 65be
-0.11156881 -0.17511065 0.07004057 -0.14537701 -0.09003636 -0.0020123431 0.07733334 -0.16134523
-0.0020372889 -0.22442062

conv2.weight f4 [20, 10, 5, 5]
00000000: 8ee0 093b c278 5c3d c657 a0bb 69e1 b53c
00000010: dfd9 b9bb 5b5d 9dbd a684 563c 5af4 acbd
00000020: 6d35 603c 62e1 363d bfea 103c 326c 34bd
00000030: 6260 a3bd 4d01 43bc c1ed 053d aa17 f9bd
00000040: 5177 8bbd 2847 95bd 8537 95bc d792 3cbd
00000050: 93df bdbc f556 8fbd b1f5 b7bd 11ff 113d
00000060: 4068 713c 5001 65bd e37a d9bc 453c 1dbd
00000070: 2260 54bd 0ee6 edbc 4f6c d1bc d447 5dbd
00000080: 247b 9dbd ab22 ddbc 81b7 95ba 4cea 72bd
00000090: 368c efbc 28cf 11bd 6dfa 43bd dc54 5bbd
000000a0: 2881 81bd b1aa 113d 9e7c 62bd 8b98 99bc
000000b0: 7b06 b4bd b570 483d 47d8 923c 49a1 883c
000000c0: 4d8c 8abd 4cf8 55bd e96d fa3c 7d9d ca3c
000000d0: aa17 1c3d dba0 933d a530 2ebc 0961 d9bc
000000e0: 0be5 37bd c5d3 64bc 9cab 663d fcd9 0d3d
000000f0: f2fc abbd 739c a6bd b947 71bd 25ad 69bd
00000100: 9654 00bd 6f2c 3fbd e53b b6bb 9538 1bbd
00000110: 6190 52bd d84a 86bc 1ed9 323d 9a40 55bd
00000120: c061 23bd 6286 263d 30c1 d0bc 482c 92bc
00000130: 100f 49bc cab5 8ebc 2208 1fbd bfa9 58bd
00000140: 029b 78bd f347 1ebd 34fb 213d f2c7 49bd
00000150: 37e7 31bd 4c1f 01bc 0931 a7bb aeac ceb8
00000160: 281e d63c d456 893c 2392 acbd c53e 4ebd
00000170: 7c1d 73bb 00b0 13bd 0df4 91bd 61a9 973d
00000180: bcbc e2bc 5fbe 1abd f578 8bbd bc7f 34bd
00000190: 2aff 083e 87e2 a03d b94c e73c 78af 0cbd
000001a0: ac07 9dbd 2096 4f3d d91c 873d b15a 523d
000001b0: d67c d8bc 9685 68bc 0970 6abc 3633 26bd
000001c0: a872 843a 5a16 923d 0b9d 8c3d 2083 41bd
000001d0: 3c04 ce3b fafb 88bd 1606 bb3c f0e5 a53d
000001e0: 0ba8 22bd bcbc 0d3d 03fb 46bd 6d29 13bc
000001f0: 5fb9 cf3d d01f f43c 4152 0d3c 0846 91bc
00000200: 384b 4a3d 9b9f 0c3d 0b9b a33d a54c dabb
00000210: 956a 61bd a3b9 6e3c 32e6 983c 14df f5bb
00000220: 61f3 b43b b3c5 af3c b3fc e4bc 7e62 82bc
00000230: 7a48 2bbc d4e6 65bd 0033 83bd 2319 28bd
00000240: 53e5 1bbd 2a18 333c 945e 42bd 7045 1cbd
00000250: 1e98 643d 4296 a4bb a676 6dbc e84c 87bd
00000260: 7e22 18bd 6176 aa3c fc91 9fbc df01 f0bd
00000270: 051a 20bd ac17 50bd 8c3c 38bd 729a 313d
00000280: 1e9a e1ba 7634 adbc e6a3 69bc af19 56bd
00000290: 4721 38bd da92 c5bc 27fe e4bc dca1 81bc
000002a0: a469 afbc 425e 023c 94e2 83bd a3dd aebc
000002b0: 8b5d 1ebd da5f 2fbc 8e6b 39bd fe34 80bc
000002c0: 0576 c9bc cceb 013d 9b29 7dbc fbbc 5b3d
000002d0: b500 413d 41a1 fabc 1c46 62bd d5a9 223d
000002e0: 7051 443d dce6 77bd 9f34 f13a df31 88bd
000002f0: 8338 65bd 775d 7e3b 11b9 5e3b 83e8 8b3c
00000300: fe0e 093b c3cb 443d 2acb bbbc 7d57 28bd
00000310: 7a76 c7bc 2a22 e53c 8146 b83c 6441 72bd
00000320: b2fb 27bd 0eb0 abbd 0a74 a1bd 1269 a4bd
00000330: ea04 493c 185f 783d 5f18 4a3d 4390 f83c
00000340: 7eed 113d bac4 69bd e6ea ed3b 725a 6d3d
00000350: 4c85 753d 3fa7 17bd 6463 32bd 96f6 33bc
00000360: f02a 263d 5692 013d e42f f43c 6ac0 583c
00000370: 787d 9abd 6f22 87bd a50a 213d a0d9 623d
00000380: 9994 a03d 7bda fb3d 9881 793d 34de 603d
00000390: 8184 2c3d 6a2a 1abc c487 cc3c 7d70 ff3c
000003a0: 1c7c 753d 40e6 c03d 12ae 82bc 28c8 12bc
000003b0: c5ec e0bb 67ef d4bc e974 483d 94a4 b93d
000003c0: aead a63c b76e 8f3c 7786 4abd b8c1 d2bc
000003d0: 2468 0d3d ae71 30bd 0950 00bd 7c97 7fbd
000003e0: 9c71 2a3d 73a5 af3b 4146 71bd c5bf 95bd
000003f0: a330 713d 95a3 70bd 637a 2c3d 6eb0 6e3c
0.0021038386 0.0538261 -0.004893276 0.02220221 -0.005671724 -0.07683822 0.013093149 -0.08445044
0.013684613 0.044648536 0.00884503 -0.044048496 -0.07977368 -0.011902166 0.032697443 -0.12162717
-0.06809867 -0.072889626 -0.01821495 -0.046038475 -0.023177898 -0.069990076 -0.08982409 0.03564364
0.014734328 -0.055909455 -0.026547855 -0.038387556 -0.051849492 -0.029040363 -0.02556434 -0.05402358
-0.07689503 -0.02699407 -0.0011422486 -0.059305474 -0.029241662 -0.03559795 -0.047846247 -0.053547725
-0.06323463 0.035563175 -0.055294625 -0.018749496 -0.087902986 0.04893561 0.017925395 0.01667847
-0.067650415 -0.052238747 0.030569987 0.0247333 0.038108505 0.07208415 -0.010631715 -0.026535528
-0.044896167 -0.013966505 0.056316003 0.034631714 -0.08397855 -0.08135309 -0.05890629 -0.05704989
-0.031330667 -0.046673235 -0.005561339 -0.037895758 -0.05140722 -0.01639311 0.04366409 -0.052063562
-0.039888144 0.0406555 -0.025482744 -0.01784338 -0.012271658 -0.017420668 -0.038826115 -0.052896257
-0.060694702 -0.038642835 0.039546207 -0.04926295 -0.043433394 -0.007880997 -0.005102281 -9.8550096e-05
0.026137426 0.016765036 -0.08426311 -0.05035283 -0.0037096431 -0.03605652 -0.07126627 0.07405353
-0.027677886 -0.03777921 -0.0681018 -0.04406713 0.13378587 0.07855707 0.028234826 -0.034347028
-0.07667479 0.05068028 0.06597299 0.05135602 -0.026426714 -0.014192006 -0.014308938 -0.040576182
0.0010104971 0.071331695 0.06865891 -0.04724419 0.006287126 -0.06688686 0.02283005 0.08100498
-0.03971104 0.03460382 -0.048579227 -0.008982045 0.101427786 0.029800326 0.008625568 -0.017733589
0.04938814 0.0343319 0.079885565 -0.006661969 -0.055033285 0.014570626 0.018664453 -0.0075033996
0.005522177 0.021456575 -0.027952528 -0.015916105 -0.0104542915 -0.056128338 -0.06406212 -0.041039597
-0.038060497 0.010931054 -0.047453478 -0.03815216 0.055809133 -0.005022795 -0.01449362 -0.066064656
-0.03714227 0.0208084 -0.01947879 -0.11719107 -0.039087314 -0.050803825 -0.044979617 0.04336018
-0.0017212068 -0.02114318 -0.014260268 -0.052270588 -0.04495361 -0.024117876 -0.02795322 -0.01582425
-0.021412678 0.007957043 -0.06439701 -0.021345919 -0.03866343 -0.010704005 -0.045268588 -0.015650269
-0.024592409 0.031719014 -0.015451814 0.053647023 0.047119815 -0.03059447 -0.055242643 0.039712746
0.047929227 -0.0605229 0.0018402523 -0.06650137 -0.055962097 0.0038813034 0.003398482 0.017078644
0.0020913477 0.048045885 -0.022924025 -0.04109906 -0.024348486 0.027970392 0.022494556 -0.059144393
-0.04101152 -0.08383189 -0.07883461 -0.08027853 0.012269238 0.060637563 0.04933965 0.030342227
0.03562688 -0.05707238 0.007260668 0.057947583 0.059941575 -0.037024733 -0.043551818 -0.010984084
0.040568292 0.031633697 0.029807992 0.013229469 -0.075434625 -0.065983646 0.039316792 0.055383325
0.07840843 0.12297531 0.060914606 0.05489941 0.042118553 -0.009409526 0.024967082 0.031181568
0.059932813 0.09418917 -0.015952144 -0.008958854 -0.0068641626 -0.025993062 0.04893962 0.09064594
0.020346489 0.017508848 -0.049444642 -0.025727138 0.034523144 -0.043077163 -0.031326327 -0.062400326
0.041612253 0.0053602993 -0.05890489 -0.07311968 0.058884274 -0.058749754 0.042108905 0.014568431

conv2.bias f4 [20]
00000000: 1c14 afbd 2780 933d a2ed 9f3c 1f8d 9abd
00000010: 1b52 8f3a 7429 37bd b69a 813c c145 cf3c
00000020: 35c5 3fbc d541 ddbc a8a5 f03c 758a 8cbd
00000030: 92de cebc cdc2 bbbd 29d0 303d f428 413b
00000040: d053 cdbc 3187 aabc 95f8 2b3d 6dcb 19bd
-0.085487574 0.072021775 0.019522492 -0.07546448 0.0010934504 -0.044717267 0.015820842 0.025301816
-0.011704733 -0.02700893 0.029375866 -0.06862346 -0.025252614 -0.09168015 0.043167267 0.0029473873
-0.025064379 -0.020816417 0.041985113 -0.037547518

conv3.weight f4 [40, 20, 5, 5]
00000000: c855 6cbd 7356 2cbd b5d2 893c 30b3 0a3c
00000010: 2f80 40bd 5c88 843b 1bae 35bd 9baa 053c
00000020: cffa 823d 18d2 b9bb 2780 52bd e3e8 4abc
00000030: 0e92 fb3b bd5d 513c dba6 78bd db26 b3bc
00000040: d293 ce3a fb1e b0bc 2847 febc 3173 45bd
00000050: a441 553b f9c6 eb3c 7b85 a7bc 0f17 a1ba
00000060: 3d97 11bd 8284 fe3c 0830 d83c 5e54 1ebd
00000070: 90e3 d4bc bb6b d5bc 4045 993c cbf1 f7bc
00000080: c7d5 39bd c30e 9cbd ae8b 28bd 75dd 253c
00000090: 73a5 e73c a719 60bd 7ae7 26bd d608 073c
000000a0: db8b f8bc 1300 a23c 7bfb 33ba 9f37 6abd
000000b0: 0362 59bb 09f5 0dbd d6cd 843b 7fc6 67bd
000000c0: 5f5d 5a3c ff5d 2cbd f2bf e33c dbb4 e3bc
000000d0: be00 ffbc 43ec 483d 7723 3a3d 0e10 453b
000000e0: 239d 82bb f964 84bc 27c9 1ebd 2e3c a73c
000000f0: c359 843c 28df 473d 06aa 113d 7288 e7bc
00000100: 90c8 213d 9d32 1a3d 857c 813b c794 7ebd
00000110: 7ea4 1bbd aadb 963c eee6 0d3d 612a 7e3c
00000120: c5e9 e3bb 7dd6 b6bc e734 cabc 6633 f5bb
00000130: 2f75 113d 1698 073d 587b 803d ffac 99bc
00000140: 8542 563d 693f 773d 9cf2 63bd 1022 c6bc
00000150: 28e5 203c 5754 033d 0d4e 333d a953 323c
00000160: fa77 3f3d f8bc 393d ccfa 823d 45c0 23bd
00000170: c522 13bd f285 043c 1f67 51ba 40c3 963c
00000180: fa1d 273d 9dff 393d f1ed b93c a435 69bc
00000190: cde9 463c e263 2e3b d71e 333d 8612 1d3d
000001a0: be21 3a3d 8f44 ea3c 7028 be3c 27a1 c83c
000001b0: 769d 94ba 6539 1fbc 275d 233d 9951 14bc
000001c0: c9d1 05bd ae07 95bc d426 113d 8d56 f9bb
000001d0: 2296 15bc 739d af3c f2e1 bd3c d832 8ebc
000001e0: 5519 42bc 8aa0 6ebc 5633 5d3a 3098 713c
000001f0: 5047 efbc c03a f93c 3de5 4ebc 2884 23bd
00000200: e343 873c 01c8 22bd b5e4 0f3d c522 43bc
00000210: 65e6 573c 3d88 17bd 4e48 58bd b344 c6bb
00000220: e6e8 033d fd53 40bc 843b af3c eadb 0fbd
00000230: 4f23 a5bc 68d4 f6bb 25b7 e3bc 78a3 f0bc
00000240: ee52 d8bc ef37 da3c 7c1a 513d 3cb9 083d
00000250: 7919 ea3c 13c7 4b3c 9623 71bc 277d 52bd
00000260: 5180 9f3c f4e2 733d 0be7 acbc a74b 5bbd
00000270: 09d7 00bd 1c25 a73b c023 013c e3ef d0bc
00000280: 4b0b ca3c ba17 163c e1d1 bdbc 6604 08bd
00000290: 2d10 033d d90e 3c3d 8d36 b93b a46c 98bc
000002a0: 9080 f03c 5fc2 8b3c 966e 323c 848c 633d
000002b0: f9d5 b8bc d585 e53c 07b9 843d a52f 20bd
000002c0: 0b61 50bd dee8 49bd f589 61bd c8ac 1e3c
000002d0: 416f 9b3c 9cd4 3abd 5947 c6bc f948 91bc
000002e0: adca 1cbd 433d 94bc 4896 32bd 0b8a 0e3d
000002f0: 0546 7a3c 2f12 06bb 027d f1bb 5909 36bd
00000300: 0e80 1ebc e6a5 003c 884e d4bc 45fd e73c
00000310: 6ee6 833b b180 e1bb e863 0a3b 6353 073c
00000320: 0b8c 18bd 78e9 583c 0778 13bd 590f 11bc
00000330: 2d9e 94bc c6f9 013d 1b97 36bd e588 9e3c
00000340: 1e98 21bd 7703 6d3c 69a8 133c cc6f a4bc
00000350: cb49 383c 3c94 2d3d 3e5d d73c e945 20bd
00000360: f788 52bc aa8a 0e3d ce96 e23a 29bd 9b3a
00000370: 8f82 a93b e629 83bc 1c63 6ebc 1e94 70bb
00000380: 72d3 e53c 5dfb 0bbd ae1c a6bc 0b6a b9ba
00000390: 0f85 26bb 859b 2a3d b732 4d3c 7e9d 7d3b
000003a0: 195b edbc 6144 a93c 068b 463d 5faa 6d3c
000003b0: 84fd 8a3c a182 fbbc 7890 1fbd 48bc 87bc
000003c0: 9f94 003c 376a 1a3d 2638 8f3a 59a5 a4ba
000003d0: 17c2 fcba 151f 513c 9d69 afba 9269 a4b7
000003e0: 3ab7 213d e96c 4f3d f27a ec3c 2cdb b83c
000003f0: 35fe 09bd 9b34 4b3d 187d 533d 8f90 8ebc
-0.057698995 -0.042074632 0.016824106 0.008465573 -0.046997245 0.0040445756 -0.044355493 0.008158351
0.06395494 -0.005670797 -0.051391747 -0.012384626 0.007677323 0.012778697 -0.060706 -0.021869114
0.0015760607 -0.021499148 -0.03103979 -0.04820556 0.0032540346 0.028781401 -0.02044939 -0.0012290197
-0.035544623 0.031069044 0.02639009 -0.038654678 -0.025987417 -0.026052346 0.018709779 -0.030266663
-0.04536989 -0.07620003 -0.041148834 0.0101236 0.028277135 -0.054711964 -0.040748097 0.008241853
-0.030340126 0.019775426 -0.00068657816 -0.05718195 -0.0033169992 -0.03465751 0.004052858 -0.056585785
0.0133279255 -0.04208183 0.027801488 -0.0277962 -0.031128284 0.04905344 0.04544398 0.0030069384
-0.0039860173 -0.016161429 -0.038766053 0.020414438 0.016156083 0.048796803 0.035562538 -0.028263304
0.039497912 0.037645925 0.0039516115 -0.062153604 -0.03799867 0.01841529 0.03464406 0.015513034
-0.0069553577 -0.022319073 -0.024683429 -0.007482934 0.035512146 0.033104025 0.06273526 -0.018759249
0.05230953 0.060363207 -0.055651292 -0.024186164 0.00982026 0.032062855 0.043775607 0.010884204
0.046745278 0.04534623 0.06395492 -0.039978284 -0.03592183 0.008088576 -0.00079880835 0.01840365
0.040800072 0.045409787 0.022696467 -0.01423398 0.012140703 0.0026609828 0.043730583 0.038347743
0.045442335 0.028597144 0.023212641 0.024490906 -0.0011338431 -0.009718274 0.03988376 -0.0090526575
-0.03267077 -0.018192139 0.03543742 -0.0076091946 -0.009130033 0.021437382 0.023179028 -0.017358229
-0.01184686 -0.014564643 0.00084381306 0.014745757 -0.02920881 0.030423522 -0.012627897 -0.039920956
0.016511863 -0.03974152 0.03513022 -0.011910145 0.013177489 -0.03699516 -0.05280333 -0.00605067
0.03220453 -0.011738774 0.021390684 -0.035121836 -0.020158438 -0.007532645 -0.027797291 -0.029374823
-0.026406731 0.026638 0.051050648 0.03337978 0.0285766 0.0124376 -0.014717957 -0.051388886
0.019470366 0.05954261 -0.021106264 -0.053538945 -0.031455074 0.0051008593 0.007882059 -0.025505012
0.024663588 0.00916093 -0.023171367 -0.03320732 0.03199785 0.045912597 0.005652255 -0.018606491
0.029358178 0.017060457 0.010890624 0.055553928 -0.022562968 0.028017918 0.06480604 -0.039107937
-0.050873797 -0.049294345 -0.055063207 0.009684749 0.018973948 -0.045612916 -0.024203943 -0.017734991
-0.038279224 -0.018095618 -0.04360035 0.034799617 0.015275483 -0.0020457616 -0.0073696384 -0.04444251
-0.009674085 0.007852053 -0.025916353 0.02831901 0.004025272 -0.0068817963 0.0021116678 0.008259627
-0.03724293 0.013239257 -0.03600314 -0.008853757 -0.01814183 0.031732343 -0.0445777 0.019352386
-0.03945171 0.014466158 0.00901232 -0.02007284 0.011248062 0.042377695 0.026289579 -0.03912917
-0.012850038 0.03480021 0.0017287375 0.0011881936 0.0051730345 -0.01601119 -0.014549997 -0.0036709378
0.028054927 -0.034175266 -0.020277347 -0.0014145983 -0.00254089 0.04165222 0.012524298 0.003869861
-0.028974103 0.020662488 0.048472427 0.014505952 0.016966589 -0.030701937 -0.038956136 -0.016569272
0.007847934 0.03769895 0.0010926768 -0.0012561484 -0.0019283917 0.012763758 -0.0013382916 -1.9599483e-05
0.03948138 0.050640974 0.028867219 0.022565447 -0.033689696 0.049610715 0.05163297 -0.017402915

conv3.bias f4 [40]
00000000: d5c1 0ebd fd6c 8dbd 3cc3 0b3d ad53 923c
00000010: fce8 1ebd aaf2 29be 3d7a 3bbc 6e5e 23bd
00000020: 5841 7fbc 8b60 d8bb 76fd 2ebd b871 9cbc
00000030: 1d78 573c bc30 5bba 255a 3dbc eef9 44bd
00000040: d988 8abd c61b 273d 1b6d 2ebd 4629 93bc
00000050: 92f2 853d c6d3 0e3b df94 533c 34a8 e7bd
00000060: bc17 42bd 1669 bbbd 5328 21be 62da 30bd
00000070: ce1c 32bd a2dd c1bd 5ad3 2ebd f749 303c
00000080: 1570 bfbd 31c8 06bc 10af 5abc d335 093d
00000090: dffd 8cbd 65a3 79bc ea9d 993c 2dfb 76bd
-0.03485282 -0.069055535 0.034121737 0.017862165 -0.03879641 -0.16596475 -0.011442718 -0.039884977
-0.015579544 -0.0066033057 -0.042722188 -0.019097194 0.013151196 -0.0008361449 -0.011557137 -0.048089914
-0.06764383 0.04079797 -0.04258452 -0.017964017 0.06540407 0.0021793707 0.012913912 -0.11311379
-0.047385916 -0.09150903 -0.15738039 -0.043177016 -0.0434845 -0.09466101 -0.04268203 0.010759822
-0.0934755 -0.00822644 -0.013347402 0.033498596 -0.068843596 -0.01523671 0.018752057 -0.060298134

norm3.weight f4 [40]
00000000: 9938 803f 3713 8b3f 16e4 743f 5977 773f
00000010: c132 7c3f d2ee 863f 2dc4 803f fcba 753f
00000020: 47d2 7a3f bb3a 7b3f fc43 7f3f 22b7 7f3f
00000030: ee00 763f d8c4 7f3f 94e3 813f 5248 7e3f
00000040: f8a8 7f3f 2b7d 773f 0431 763f b076 803f
00000050: ac0e 713f bd7d 7a3f c19c 7e3f c652 933f
00000060: 2fde 813f 46f7 853f 5e14 883f c1b4 7f3f
00000070: b8bb 7f3f 69e6 853f 1177 763f fa1a 7a3f
00000080: efc5 883f 16e7 7c3f f34b 7c3f 0b01 733f
00000090: 7727 7f3f 27d7 783f 4e82 773f 3cad 763f
1.0017272 1.0865239 0.9566053 0.96666485 0.98514944 1.0541632 1.0059868 0.9598844
0.9797711 0.9813649 0.9971311 0.99888813 0.9609517 0.99909735 1.0147576 0.993291
0.998672 0.96675366 0.9616854 1.003622 0.9416301 0.9784811 0.9945794 1.1509635
1.014593 1.0466087 1.0631216 0.99885184 0.9989581 1.0460941 0.9627543 0.9769741
1.0685405 0.9879011 0.9855339 0.94923466 0.99669594 0.97203296 0.96683204 0.96358085

norm3.bias f4 [40]
00000000: e82b 93bd 51ca a63d 845c e7bc 8b9a 5ebd
00000010: 961a 89bc c8ab 0ebe e8ba ff3c 86e4 09bc
00000020: 289c ccbc 915d 343d 8232 90bb d9aa 153c
00000030: f80c 08bd 2d68 293c 6c2a 71bd 3843 883c
00000040: da6f b63b acbb 063c 6c61 e9bc fd15 473b
00000050: 0b62 07bc 12b8 013d cdb4 0a3d 8707 b6bc
00000060: 3085 41bc dfaf 073d 93ba f4bb 4ede a13b
00000070: 661c 17bd bcee aebd e313 db3b bc75 97bb
00000080: 9396 673c 7963 17bd f07b a33a a938 10bd
00000090: 57ba 4f3a 8fc2 25bc 4959 be3c 3678 9abb
-0.07186109 0.081440575 -0.028242357 -0.054346602 -0.01673631 -0.13932717 0.031217054 -0.008416301
-0.024976805 0.044034544 -0.0044005523 0.009134972 -0.033215493 0.010339779 -0.058878347 0.016633615
0.005567533 0.008223455 -0.028488837 0.0030378096 -0.008263121 0.031669684 0.03386383 -0.022220386
-0.0118115395 0.033126708 -0.0074685304 0.004939831 -0.036892317 -0.08541629 0.0066857203 -0.0046221893
0.014135021 -0.0369601 0.0012472849 -0.035210285 0.000792419 -0.010117187 0.023235934 -0.0047140373

norm3.running_mean f4 [40]
00000000: 6d84 403c 3d37 233c e78c cd3d 0f06 df3d
00000010: 9968 d23a 095d 5a3b 8529 053c 000a 793e
00000020: 12a1 233e 6243 8f3c a33b d93b bb2d 1c32
00000030: 6b3a bf3e b5c6 082e abf7 9d3b 5a69 503a
00000040: 426a 2c33 97bb 143e d38b 013d 1209 ff3b
00000050: 2842 773e e472 363d 27a8 033c 9067 883b
00000060: 0300 873c 169b 403b 9ed2 853b 0cbb 9033
00000070: e4fe d015 f79f 5b3c 1a44 0f3e 37f1 083e
00000080: d2e8 0f3c 38bb 693e 1cd2 d33c 1daa d23e
00000090: 5f2c c926 5188 013e 34fb cd3d d070 913c
0.011750323 0.0099619 0.100366406 0.108898275 0.0016052901 0.0033319613 0.008127575 0.24320221
0.15979412 0.017488185 0.0066294237 9.090793e-09 0.37349257 3.1099307e-11 0.004820784 0.0007950269
4.014351e-08 0.14524685 0.031627487 0.0077830637 0.2414633 0.044543162 0.008035696 0.0041627362
0.016479498 0.0029389313 0.0040839454 6.739546e-08 8.441268e-26 0.013404838 0.13990822 0.13373266
0.008783536 0.22825325 0.025857024 0.4114541 1.3959204e-15 0.12649657 0.10057679 0.017753989

norm3.running_var f4 [40]
00000000: 3dc1 123b a73b 733b 77ea 9c3c 2d0f 9f3c
00000010: 352e 9e39 4d4d 5a3a b161 0e3b 252b 0a3c
00000020: cdbe 833b cc0b 983b e35f fd3a 68e6 732e
00000030: 76f2 4a3c 9022 852b 6b4d ab3a 229f 0e39
00000040: 9526 3830 7f15 a63b 315a 003c 87f6 1a3b
00000050: a3a2 a13b 1861 4f3c 61fe f63a 1a37 f73a
00000060: 8efc 6f3b a0e7 323a a8d8 e13a 73b2 0b31
00000070: d66e 1713 8c6a a23b 5e0c 0e3c 13da a73b
00000080: 8921 2f3b ff14 ea3b fb9c f43b c6d9 1f3c
00000090: 7c4e ec24 03fc f73b 2339 883c 2bde c73b
0.002239301 0.0037114413 0.01915477 0.019416416 0.00030170535 0.0008327559 0.002172571 0.008433138
0.004020548 0.004640078 0.0019330945 5.5456445e-11 0.012386909 9.459811e-13 0.0013069337 0.00013601457
6.699364e-10 0.0050684805 0.007834003 0.0023645477 0.004932718 0.012657426 0.0018844121 0.0018861026
0.003661904 0.0006824676 0.0017230706 2.0328599e-09 1.9113526e-27 0.004956549 0.008669941 0.005122432
0.002672287 0.007143616 0.0074650026 0.009756511 1.0248164e-16 0.007567884 0.016628807 0.0060994825

conv4.weight f4 [40, 40, 5, 5]
00000000: 7ac2 c23b 28c7 b5bb 2a5d 203c 6367 dcbc
00000010: caa4 91bc 91df 863b 3f11 b63b 7e62 16bc
00000020: 291e 823c 9eee 103c 597b 89bc 622e 763c
00000030: 53bc 66bc 777b 393c 0d77 d7bb 2c5f b33c
00000040: 87c8 0e3b 75ea 8cba fab1 91bc 2aa9 c83c
00000050: fd3d 0abc 1dea 93bc 5c9e 3dbc ab89 d6bc
00000060: 8830 dfbc cf74 513d f4d9 f23c dad7 d93c
00000070: e6ca 003c fbcf 483d 0088 8d3b 75a6 c5bc
00000080: 06cd 8a3c 6a3a 3e3c f527 dd3c 9478 05bc
00000090: 8504 8d3c 4b66 f33c e66a c53b fece 863c
000000a0: d91d 033d eaf8 e9bb 371e 1d3d adc3 4b3c
000000b0: 6f17 0d3c 99be 9f3c 0baa de3c c1e5 d23c
000000c0: 85a1 3e3d 56ee ed3c d512 72bc cc92 e2bb
000000d0: 0d49 833c f301 0e3c 6d79 98bc e325 cd3a
000000e0: 1ce7 ccb9 2e18 41bc 491a d73c 2453 823c
000000f0: 84b1 ce3c caab 83bc 2c35 8fbb 5908 dabc
00000100: 4505 db3c 5813 5cbc f09c 78bb c2da c7bc
00000110: 4be3 9a3b f4b2 433c 120a f3bc 1860 e13c
00000120: e69f 103c 8d4b 893c 747d f0bc 374c 33ba
00000130: ab7d b13c d36b 243c 406d 9dbc 7326 4fbb
00000140: 2f71 53bc 74c1 083c bf21 373c f78d 983c
00000150: 4769 a6bc bc6a a13c 3fbc 48bc 7abe ffbc
00000160: 5bb4 71bc be3b 043d c017 bebc 7f0f 323c
00000170: cb0b 9c3c 6ce1 f3bc e34a 19bd 9722 4dbc
00000180: 5b08 433b a812 03bd af9a b43c 9a77 bf3c
00000190: e30b 1c3d 7c53 9e3c 3f78 b73c e46d 223c
000001a0: 2ebf a9bc 08be fc3a 5998 933c 28fb 21bc
000001b0: c110 baba 0309 16bc 4d75 56bc d42d 81bc
000001c0: d83d a5bc 8fc7 c5ba a9f6 2d3c 4fed 043b
000001d0: c81f 2cbc 4803 953c 50a5 4e3c 4271 d5bc
000001e0: b80a 0f3b a880 583b dda5 9abb 1e45 a8bc
000001f0: 6ab2 683c 31e8 8f3d 6c26 613b 280b 823d
00000200: c2ce f33c 6c2c f53c 4252 4abc 8474 8b3c
00000210: 8881 a23c 8892 953c 9e44 76bc fff3 0a3d
00000220: 2d9e e33c 73d6 b3bc dc37 3a3c 2414 82bc
00000230: fc14 2c3d eaa8 0abb c841 96bb 1d00 683c
00000240: 355f c8bc c5f8 06bc 03f5 ca3c ca78 b43c
00000250: 0ec9 03bc 0cf7 253b 40e3 d73c fa9c 993b
00000260: 8b1e 83ba 1a2a c7ba 2d38 6bbb 290d 993b
00000270: ba0c 8f3c 6900 c6b9 0cbb e2bc b3b4 a7bc
00000280: dad2 033d 2e0c 35ba 5aac 293c 3789 b13c
00000290: 2ff2 10bd ba1d 653c 7918 ad3c ab41 0cbc
000002a0: 06bc 66bc 4143 cbbc d039 c8bc 54f4 323c
000002b0: 52cd 483d a057 ec3c 89b6 00bd 9f08 98bb
000002c0: da56 a6bb 44e2 af3c 8e45 adbc 1635 6539
000002d0: 2538 cd3a 1218 9fb9 f8b9 0d3d ea6c 9ebc
000002e0: c42b 87bc b742 fbbc ca86 48bc 986d 9e3c
000002f0: 6873 0c3c 7fc5 2c3c fae1 c33c bcb0 c33c
00000300: a3e5 f63b c6c8 fc3b cee6 34bb c54d c4bc
00000310: 915f 703c f624 e93c db76 733c 5e0e 40bc
00000320: 1958 ae3c 9d11 f83c 57f5 f9bc b8a1 ca3c
00000330: dca6 c53c 9ab5 0f3d 7a27 813c 2167 063c
00000340: 2b48 623c e63f 2fbc 37ba 653c 8d6f 6fbc
00000350: eace 3c3c 7968 1f3b a020 0f3d d250 0b3d
00000360: adce df3c cd65 78bc 9709 30b9 fa7d 063d
00000370: da2a 1f3d 8359 3cbc e4d7 e3bb 6e3c 8b3c
00000380: 8da2 753c b1db 843b 3ec5 923b afb5 e73c
00000390: aa3d ae3c 10a7 4b3c 5390 863c e160 81bc
000003a0: bf9a 9abc e1a2 b73c 2b82 a3bc c679 89bc
000003b0: 649c 09bd 8d5e ad3c b296 c83b 14ad 8b3c
000003c0: 871c a53c e9d3 dcbc 67de b2bc 79c4 653c
000003d0: 2168 213d e866 393c eee2 e93b b20b 363d
000003e0: 6ca8 a5bb 4adf 163d 2be5 0b3d ef98 74bc
000003f0: d8a8 a83b 8991 f43c 4e59 a73c 3560 93b9
0.0059435936 -0.005547423 0.009787837 -0.026904767 -0.017778773 0.0041160067 0.005556255 -0.009178756
0.015883522 0.008845953 -0.01678245 0.015025707 -0.014082986 0.01132094 -0.0065754713 0.021895967
0.0021787004 -0.0010751026 -0.017785061 0.024494726 -0.008437631 -0.01805597 -0.0115734 -0.026188692
-0.027244821 0.051136788 0.029644944 0.026592184 0.007860875 0.04902647 0.004319191 -0.024127224
0.016943466 0.011610607 0.026996592 -0.008146424 0.01721407 0.029711863 0.006024706 0.016456123
0.032010887 -0.0071402686 0.038358893 0.012436789 0.008611544 0.019500064 0.027180692 0.02574432
0.046540756 0.029044311 -0.014774998 -0.006914472 0.016026044 0.008667457 -0.018612588 0.001565155
-0.00039082102 -0.01178555 0.02625765 0.015908785 0.02523113 -0.016073126 -0.0043703523 -0.026615309
0.026735911 -0.013432346 -0.003793534 -0.024396304 0.0047268025 0.011944521 -0.029667888 0.027511641
0.008827185 0.016759658 -0.029356696 -0.0006839665 0.021666368 0.010035473 -0.019217134 -0.003160861
-0.012905403 0.008346904 0.011177479 0.018622382 -0.020313872 0.019704215 -0.012251913 -0.031218756
-0.014752473 0.032283537 -0.023204684 0.010867952 0.019048592 -0.029770575 -0.037424933 -0.012520454
0.002975962 -0.032000214 0.022046415 0.02337246 0.038097274 0.019326918 0.022396205 0.009913895
-0.020721044 0.0019282708 0.018016981 -0.0098865405 -0.0014195667 -0.009157422 -0.01308949 -0.015768923
-0.020171091 -0.001508938 0.01061789 0.0020283049 -0.010505624 0.018190041 0.012612656 -0.026054982
0.0021826457 0.003303567 -0.0047194795 -0.02054077 0.0142026935 0.07026709 0.0034355177 0.06349784
0.029761676 0.029928409 -0.012348713 0.017023332 0.019837156 0.018258348 -0.015031008 0.0339241
0.027785385 -0.021952843 0.011365857 -0.015878744 0.0420122 -0.002115781 -0.0045854785 0.014160183
-0.02445946 -0.008238022 0.024775034 0.022030253 -0.008043541 0.0025324253 0.026353478 0.0046879025
-0.0010003609 -0.0015195042 -0.0035891638 0.0046707583 0.017462123 -0.00037765809 -0.027677082 -0.020471906
0.032183506 -0.0006906417 0.010356033 0.021671874 -0.035387214 0.013984138 0.021129834 -0.008560578
-0.014082914 -0.024812343 -0.02444163 0.01092251 0.049023934 0.028850377 -0.03142408 -0.0046396996
-0.0050762715 0.021470197 -0.02115133 0.00021858918 0.0015656991 -0.00030344777 0.03460118 -0.019339044
-0.016500361 -0.03067146 -0.0122391675 0.019339368 0.008572437 0.010545134 0.023911465 0.023887984
0.007534699 0.0077143637 -0.002760339 -0.023962865 0.014671222 0.028460007 0.01485988 -0.011722175
0.021282243 0.030281836 -0.030512495 0.024735317 0.024127416 0.035085298 0.015765894 0.008203299
0.0138111515 -0.010696387 0.014021448 -0.014613998 0.0115239415 0.0024323745 0.034943223 0.034012623
0.02732023 -0.01516099 -0.0001678824 0.032834984 0.038859226 -0.011495951 -0.0069532264 0.016996589
0.014992368 0.0040545096 0.0044790795 0.028284876 0.021269638 0.0124299675 0.016426241 -0.015793266
-0.018872617 0.022416534 -0.01995953 -0.016781699 -0.03359641 0.02116325 0.00612148 0.017050304
0.020155204 -0.026956515 -0.021834565 0.0140238935 0.039405946 0.011316039 0.007137648 0.044444747
-0.005055478 0.03683404 0.0341541 -0.01492904 0.005147081 0.029854553 0.020428326 -0.00028109705

conv4.bias f4 [40]
00000000: 07f3 663c e483 bd3b 82b7 d1bc ef23 ca3c
00000010: 1130 23bc 94da b63c 2ee7 473c 3e7e 2a3c
00000020: 61c0 fbbc 89d5 e53c 5a63 67ba 56dd fa3c
00000030: ddef 3fbd afce fa3a eab7 f6bc 121d 1ebd
00000040: 4b0c 3dbd ba97 803c 666c 1e3b e07d 92bc
00000050: f24d 09bc 9203 81bb dab0 23bc 3ca6 b23c
00000060: 7b79 a9bc 08ae 1ebd 7a65 7c3c 7f8b 673d
00000070: 18bd c3bc 7200 a0bc be24 20bd 9cc3 663c
00000080: 80eb ee3c de94 b5bd 4783 99bc 2a77 d2bc
00000090: 5b72 f1bb 4c15 8abc 73d1 6fbd 655b eebc
0.014096028 0.005783545 -0.025600199 0.024675338 -0.00996019 0.022321023 0.012201114 0.010406075
-0.030731382 0.028055923 -0.0008826755 0.03062312 -0.04685961 0.0019135083 -0.030116994 -0.038601942
-0.0461543 0.015697349 0.0024173497 -0.017882288 -0.0083804 -0.003937193 -0.009990895 0.021807782
-0.02068781 -0.038740188 0.015405053 0.05652952 -0.023893878 -0.019531462 -0.03909754 0.014084723
0.02916503 -0.08866285 -0.018739356 -0.025691587 -0.0073683686 -0.016855858 -0.058549356 -0.029096315

norm4.weight f4 [40]
00000000: 5148 8c3f 1a68 903f 01a7 8a3f 4151 8a3f
00000010: 3435 8e3f 5ee1 953f 4d6a 953f 042b 873f
00000020: 17e4 913f 6a6a 8d3f 6b33 913f 18a7 8b3f
00000030: 6c45 953f a68a 963f 294b 983f dc8f 943f
00000040: 8a04 943f b7ae 8a3f 9ac6 8c3f f520 963f
00000050: ee43 913f bdeb 8d3f bbc7 883f d6db 893f
00000060: bcd2 8a3f 6b82 8e3f bf08 993f 194c 9d3f
00000070: e0d6 993f 6295 8b3f 8a82 893f ac04 933f
00000080: 5f43 9c3f 5ef3 953f 0d00 943f f9f6 983f
00000090: fed1 8e3f f173 8d3f 975b 9b3f 98ba 9a3f
1.0959569 1.1281769 1.0832216 1.0806047 1.1109986 1.1709402 1.1673065 1.0560002
1.1397732 1.10481 1.1343817 1.0910368 1.1661811 1.1761062 1.1897937 1.1606402
1.1563885 1.0834569 1.0998108 1.1728808 1.1348855 1.1087567 1.0685953 1.0770214
1.0845561 1.113355 1.1955794 1.2288848 1.20187 1.0904963 1.0742962 1.1485801
1.220806 1.1714895 1.1562515 1.195037 1.1157835 1.1051008 1.2137326 1.2088194

norm4.bias f4 [40]
00000000: fbbd 7ebc e78d e23b b532 df3c ceb3 da3c
00000010: 6e5a 33be 2c40 ddbc 52cb c9bd 3003 d5bc
00000020: 347d a83d e0aa 59bd 8dc4 40bc d891 70bc
00000030: 9531 02bd 2879 5d3d 2641 223d 1532 ed3c
00000040: 6eab 3bbd f80f 67bc b280 1e3d 78d1 b1bc
00000050: e060 12bd 7819 a8bb 7bfe 50bd dd46 c33b
00000060: d26b 02bd 6b63 01bd f469 b3bd 7431 a93d
00000070: bcba b33c b47d 81bd 5f87 3abd 292c 1c3c
00000080: 43bd 403d ffa5 343d 6117 79bd 5ec9 013d
00000090: 2acd 17bd a529 b8bd 2c11 073d 499f 483d
-0.015548225 0.0069138887 0.027245859 0.026697066 -0.17514965 -0.027008139 -0.098532334 -0.026002496
0.082270056 -0.053141475 -0.011765611 -0.014683209 -0.031785566 0.05407062 0.03961291 0.028954545
-0.045817785 -0.014102928 0.038696952 -0.021706328 -0.03573692 -0.0051299892 -0.05102394 0.0059593753
-0.031841107 -0.031588953 -0.08760443 0.082613856 0.021939628 -0.06322804 -0.045539256 0.009532013
0.047055494 0.04410362 -0.06081331 0.03168618 -0.037060894 -0.08992318 0.03297536 0.04898003

norm4.running_mean f4 [40]
00000000: ff53 003f 9753 133f d15a f83e 1ea7 463f
00000010: c89e 123f d976 f23e b4b5 c73e 9e21 f33e
00000020: 155b 193f a943 263f 804f c53e be7c 123f
00000030: 697d 2c3f af7f 203f 35fa f83e 277a 043f
00000040: e389 763e caaa fb3e 165b 293f 3611 cd3e
00000050: 2119 ed3e 759f f83e 9fd8 003f 5cc4 e03e
00000060: d35c 043f da20 d13e ab07 e43e bd38 173f
00000070: 7cfa d23e 659a 293f 9d6f 953e c6e9 0b3f
00000080: fc20 3f3f 2873 833e fbb8 233f eb92 be3e
00000090: 6588 e33e 9835 253f 12b2 963e 6111 1e3f
0.5012817 0.5754942 0.48506787 0.7759875 0.5727353 0.473563 0.39005816 0.47486585
0.59904605 0.6494699 0.38537216 0.5722159 0.6737886 0.6269483 0.48628393 0.5174889
0.24076037 0.4915374 0.6615461 0.40052193 0.46308234 0.48559156 0.5033054 0.4389981
0.5170414 0.40845376 0.445371 0.5907095 0.4120673 0.6625121 0.29186717 0.54653585
0.74659705 0.25673795 0.6395413 0.37221465 0.44439998 0.645349 0.29432732 0.6174527

norm4.running_var f4 [40]
00000000: 4a2a f73e aebf c93e eed2 d13e e84e 0a3f
00000010: c324 1b3f f247 143f 4666 163f 6628 cf3e
00000020: 45c9 ea3e adf1 023f 3286 063f 5941 b93e
00000030: 3903 163f 924d 9f3e ad43 193f 5732 813f
00000040: fff7 823e 0886 563e fa1c c63e ffcb 413f
00000050: 5e7a c33e 2ec4 bc3e 9ed7 c03e 57d0 913e
00000060: d17a fc3e b40a c63e 6651 473f f62e d93e
00000070: bfb3 1a3f 6804 da3e d4c9 d53e 3fc5 b03e
00000080: a664 c93e eb22 b03e c14a 1a3f afb8 fd3e
00000090: 823c a83e 95fe f53e 47be 9d3e b5c5 003f
0.48274451 0.39404052 0.4098124 0.5402665 0.6060297 0.5792228 0.58749807 0.4046051
0.4585668 0.5115002 0.52548516 0.3618267 0.5859867 0.3111387 0.5986889 1.0093488
0.2557983 0.20949566 0.38693982 0.757019 0.38179296 0.36868423 0.37664503 0.28479263
0.4931245 0.3868004 0.7785858 0.4241864 0.6043052 0.42581487 0.41755545 0.34525487
0.393346 0.3440164 0.60270315 0.49554965 0.32858664 0.48045793 0.30809233 0.50301677

fc1.weight f4 [50, 640]
00000000: 08e6 44bd 3885 783c 066f 193d 43cb 8d3b
00000010: f61d 37bd 97e3 103c 36e7 fe3c 3853 9c3c
00000020: 2b9f febc bebf f2bc ab89 603b e6a8 9a3b
00000030: 7a4e 82bd ff37 24bd ffa8 8cbc d8f0 153d
00000040: bba6 023d 56e0 373d 71ae b4bc b95a 443d
00000050: 174b 2ebd 61a9 f3bc 0fbf e33c 8707 15bc
00000060: 1d10 babb eafe 86ba aa91 43bc e3bd 81ba
00000070: 1179 28bd 7dcf b83b 50fa ef3c 793c 703c
00000080: 5f67 b1bc 2004 8d3c 0169 093d 157e bf3b
00000090: 6b3d 84bd d288 debc 0d3b 9b3c 3ed6 0a3c
000000a0: cdcd dabc a0bc 95bc e62a e13c 18cf 4c3c
000000b0: 9f98 9bbc dc74 30bc 7e8c 12bd e4d4 0a3c
000000c0: 98d8 14bc e589 c03c 94c7 d1bc a6e9 0d3d
000000d0: e6ce 173c 9dd9 793c ce3f ddbc 9045 8d3c
000000e0: 73a6 893b 91ac 993c c67e aa3c 896f c3bc
000000f0: b790 15bd 919c 3a3d ca65 e9bc eb21 60bc
00000100: f73e 04bd bd06 f5bb 9c11 a5bc 2955 b6bc
00000110: ffda 1cbc 6218 923c f503 d5bc 03a5 b9bc
00000120: 6b46 41bc 38b8 213d c49c bdbb d89b adbc
00000130: 5e7a cb3c 5b45 3e3d ecf1 573c d2a2 39bd
00000140: facd 57bc 1370 3fbc ae1f af3b e164 3ebc
00000150: bb87 0abb 95bd 0c3d cbf6 0cbd 26d1 eabc
00000160: 3d4d b03c cde9 b9bc d3eb aabc c622 f43c
00000170: fc39 0a3d 9f87 64bc 1062 d2bc d9fc 38bc
00000180: ebcf 893b 3095 503c 3971 443c e19b 80bc
00000190: 83c0 1b3c 7910 e03c bbe6 1a3d 2b78 bb3c
000001a0: 60af fd3b 489a a63c dfc8 abbb 950d 2d3d
000001b0: 8ee6 20bc 012d 5a3b 62ef 58bb a6d9 04bc
000001c0: 6668 0c3c 0aef 233c e3d1 0b3d 1033 d93b
000001d0: f6f3 5abd 771e d53c dc32 6a3c 9b64 5d3c
000001e0: 3fa1 903c eb61 cf3c a351 f4bb 14f9 893c
000001f0: 3dc7 d1bc 5e1e c43c c4dc 87bc ed06 bdbc
00000200: d543 d73c f259 043c 9f77 c83c 0e04 6f3c
00000210: 73da e2bc 5a64 243a 6f23 9abc f825 093d
00000220: 0a7e c4b9 6d71 043c f279 a73c 9782 883c
00000230: 0265 923c 2234 603d ad78 1a3d dbd7 6b3d
00000240: 1c2c 20bd e9fd ed3c 0def d8bc 99a2 f13c
00000250: 4f79 21bc 4304 133d cab4 113d e76e 76bc
00000260: 65c8 23bc 0e26 eebc 3e0e d4bb 103f 333d
00000270: 367d 653b f7ae b2bb 9ecf a4bc 3f0e 813c
00000280: 3f66 4ebc c5ad 393c e031 34bb 20f7 8a3d
00000290: a7ea 833c 549b d83c 6fd2 273d dcfd f23c
000002a0: 41cb 033c 27a6 4dbc 532a bb3c ac93 753c
000002b0: f870 753c d90a 2f3d 7b68 503d 2f62 333d
000002c0: 9e4b 45bd e85b d6bb fc94 aa3c 0fc9 b3bc
000002d0: 88b0 38bd eb85 c53c 377d 93ba 6234 3a3c
000002e0: 4e20 70bc f009 d93b f292 9cba f024 95bc
000002f0: ecb2 bebc 3e1c 74ba a0ed fc3b 2038 e83c
00000300: 1d5e f83b 96fc c3bb 7676 1e3d 80e2 163c
00000310: a999 b83c 794f babc 9588 88bc f029 06bd
00000320: 518e 0d3b 9959 eabc f644 4c3d 176f cd3c
00000330: 4ed2 0abc 0bb9 c53c 4298 393d 7ca5 03bd
00000340: b56d 473d c74f 86bc 7fe4 153d 94d0 f33c
00000350: ed1b 623d 1cdd 6b3c 0f87 9c3c 1435 a8bc
00000360: 8265 433d 032a 9cbc 323a edbb f291 b5bb
00000370: 62c4 313d 35af c13c 91e7 ccbb 75ca 9aba
00000380: f548 a73c c32c 523d 72f7 3e3d 7967 7ebb
00000390: 2e73 e2bc e599 523d cafe 493b ee73 d53b
000003a0: bdfe 583c 621b ac3c de00 bfbb 1b98 163d
000003b0: 4c56 d43a 3db1 2abb fa45 613b be4a 163c
000003c0: ff33 45bb 631c b2bb a703 edbb 92e9 00bb
000003d0: 76c7 1c3d 09dd 423d cf54 033d d6fe 0a3d
000003e0: 7723 bd3c 7f39 ff3c 42ce c33c 2d46 9a3c
000003f0: 3cbe 1f3c 4589 69bc 717f 163d 6def 593d
-0.048070937 0.015168481 0.037459396 0.004327209 -0.044706307 0.008843324 0.03111611 0.01908265
-0.031081757 -0.029632445 0.0034261744 0.0047198413 -0.063626245 -0.040092465 -0.017170427 0.03660664
0.031897288 0.044891678 -0.022055836 0.047938082 -0.04255208 -0.029743852 0.027801065 -0.009096033
-0.0056781904 -0.0010299359 -0.0119365845 -0.000989851 -0.041131083 0.005639969 0.029294163 0.014662855
-0.021655736 0.017213881 0.033547405 0.0058438876 -0.06457027 -0.02716485 0.018949056 0.008473931
-0.026709462 -0.01827842 0.027486276 0.012500547 -0.018993674 -0.010770049 -0.035778515 0.008473609
-0.009084843 0.023503253 -0.025607862 0.034646653 0.009265637 0.015249637 -0.027007964 0.017245084
0.0042007505 0.018759044 0.020812403 -0.023856895 -0.036514964 0.04555947 -0.02849092 -0.013679962
-0.03228661 -0.00747761 -0.020149998 -0.022257404 -0.009573697 0.017833892 -0.026002863 -0.022661692
-0.011796574 0.039482325 -0.00578651 -0.021192476 0.024838623 0.04645286 0.013180237 -0.045321293
-0.013171667 -0.011684435 0.0053443527 -0.011620731 -0.002113803 0.034360487 -0.034415048 -0.028664183
0.021521205 -0.022694493 -0.020864403 0.029801738 0.033746704 -0.01394835 -0.025681525 -0.011290752
0.004205694 0.012730882 0.011989885 -0.015699329 0.009506348 0.027351605 0.037817698 0.022884449
0.0077418536 0.020337239 -0.0052424516 0.04224928 -0.0098205935 0.0033290985 -0.0033101668 -0.008108532
0.008569812 0.010005722 0.03413571 0.0066284016 -0.053455316 0.026015503 0.014294352 0.013512756
0.017655013 0.025315246 -0.007456021 0.016842403 -0.0256077 0.023940261 -0.016584761 -0.023074592
0.026277462 0.008078085 0.024471102 0.014588369 -0.027692055 0.0006271057 -0.018815724 0.033483475
-0.0003747794 0.008083683 0.02044389 0.016663833 0.01787043 0.054737218 0.03771274 0.057578903
-0.039104566 0.029051738 -0.026481176 0.029496478 -0.009855582 0.035892736 0.035572805 -0.01504109
-0.009996508 -0.02907088 -0.0064714244 0.043761313 0.0035017258 -0.0054529863 -0.02011853 0.015753863
-0.01259762 0.011332934 -0.0027495548 0.067854166 0.016103102 0.026441254 0.04097217 0.029662065
0.008044065 -0.012551821 0.02284733 0.014988821 0.014980547 0.042734955 0.05088089 0.043794807
-0.048167817 -0.006541718 0.020822994 -0.021946458 -0.04509023 0.024111709 -0.0011252527 0.011365028
-0.01465614 0.006623499 -0.0011945649 -0.01820609 -0.023278676 -0.000931207 0.007718757 0.028347075
0.0075795786 -0.0059810383 0.038687192 0.009209275 0.022534208 -0.022742974 -0.01666669 -0.03275484
0.002159972 -0.028607177 0.049870454 0.025077386 -0.008472992 0.024136087 0.04531122 -0.03214024
0.04868861 -0.016395463 0.036594864 0.029762544 0.055202413 0.014395978 0.01910737 -0.020533122
0.047704227 -0.019063001 -0.0072396034 -0.0055410797 0.043400176 0.023643116 -0.006253191 -0.0011809604
0.02042053 0.05131222 0.0466227 -0.0038818999 -0.027642813 0.051416297 0.0030822032 0.006514064
0.013244328 0.02100915 -0.005828961 0.036766153 0.0016200035 -0.0026045584 0.0034373985 0.009173093
-0.0030090807 -0.005435513 -0.0072331014 -0.0019670469 0.03827616 0.047574077 0.0320633 0.033934437
0.0230882 0.031155346 0.023902062 0.01883229 0.009749945 -0.014253919 0.03674263 0.05320685

fc1.bias f4 [50]
00000000: 2a3f 053d 31c3 3d3d f2ae 833c 5c6f 0f3d
00000010: 57e1 463d b50e ce3c 1770 15bc 1988 04bc
00000020: e93f 8e3d 51a3 5bbc ef8c 6f3d bdea 12bd
00000030: 3443 6bbb f322 133d 8ba0 2a3d 2346 72bc
00000040: 01e2 d03c 2789 503d 35ee b33d 7972 413d
00000050: e7cc 0f3d fa7e 153d 56da 4c3c 3bef b33c
00000060: 6e2f 333d 22b3 2b3d 518a e43c 1ee8 493d
00000070: 78a5 193d f516 ef3c c2ee 423d 9457 e03d
00000080: bfbf 0dbc e89b 06bc cc25 b93d 4cfe 33bc
00000090: 7e9d 813b 459e a43d 05e1 fa3b 4d28 763d
000000a0: 23f7 813b e20f 903c 40c6 1d3d 739a 26bc
000000b0: 6437 f33c 0b46 3a3d 4ea9 373c 3b0e fe3c
000000c0: 632c 3e3d 72b2 b03d
0.03253094 0.046328727 0.016074631 0.03501831 0.048554745 0.025153497 -0.009120963 -0.008089089
0.06945784 -0.013405637 0.058484014 -0.035868395 -0.003589821 0.035922002 0.041657012 -0.01478723
0.025498392 0.05091205 0.08785669 0.04722831 0.03510752 0.036498047 0.012503227 0.02196466
0.043746404 0.04191888 0.027897986 0.04929363 0.03751132 0.029185751 0.04759098 0.10954204
-0.008651673 -0.008215882 0.09040412 -0.010985922 0.003955542 0.08038 0.007656219 0.060097028
0.0039662286 0.017585699 0.038519144 -0.0101686595 0.029689498 0.045476954 0.011209799 0.031012645
0.04642905 0.08627786

fc2.weight f4 [10, 50]
00000000: 33e9 18be 3bde 6cbe 95af 30be fea1 f7bd
00000010: bf0d 8d3e 5467 25be a5ec 2abd 4e41 53bc
00000020: 4af3 c7bd e0c8 003e 2c7d 0ebe 7731 4b3e
00000030: 3078 cbbc ef1c 493e b801 47bd 8a80 bcbd
00000040: ed0e 0dbe 3f28 60be 0113 603c 74ff 4a3e
00000050: 8b44 513d f9ba 86be 2a39 1d3e 6a72 35be
00000060: ac30 d23c 039e 21bd ca28 953e 8d98 8e3d
00000070: c19d 1ebe d96d 3b3d f485 b53e fa7d 54be
00000080: 173c 2abe 551f abbd 7912 5a3e ef6a 82bd
00000090: d5e0 f8bc 5faa d33e 8c6c 9d3e 05d8 91be
000000a0: 2374 fdbd 3d86 8a3d 0bd7 8e3c dc88 403e
000000b0: fa4c 13be 197b 37be 0a41 1d3d f0db a8be
000000c0: 1d8d 353e 9a07 1dbe 2482 32bd 2e2d 84be
000000d0: 768c e1bd 4d1e a0bc 9692 803e 4c39 7cbe
000000e0: 1b3b bdbd 4db6 3bbe e8ca d03d 6af7 013e
000000f0: 5397 503e 3788 fd3d ee86 9dba 836f c0bc
00000100: 17e9 e2bd a479 01be edef d2bd 00d9 5bbe
00000110: e206 493e a921 d6bc 2b64 0ebe 9f9d 653e
00000120: 59e1 17be c1f1 2ebe 1173 8c3e 3fad 653e
00000130: dd02 e63d 22c8 333e d8ad bbbd 02f5 8abd
00000140: 8692 e83d c5c4 2ebe f7d3 1dbd 2311 07bd
00000150: 4e41 393e 03cc 07bd c3f7 9b3b b9a7 6c3e
00000160: ab40 8ebe 779c 233d fb6c a8bd 5e1d 903e
00000170: a7ab a0bd 31c2 80bd 8d61 503e a118 14bc
00000180: fcb5 263e fd85 0c3e de1f f23d 9df7 1bbe
00000190: 0497 8b3d 20a8 313e 0cfc 1ebe 29a3 82bd
000001a0: 0e7e dabb 75b5 40bd 7fd4 fabd 6485 7a3e
000001b0: 0bb7 413e 0a1d 1bbe 1b65 21be adf2 ff3d
000001c0: a2c4 b13e ed31 48be 25f3 08be 2f0c ef3d
000001d0: 78f6 e7bd 6327 5d3e 107c 443e c643 7bbe
000001e0: 76f9 89bd f044 973e 0bc0 663e 5034 1abe
000001f0: 7ff9 173d 841a 40be 7de6 18be 537d 8abc
00000200: d062 09be 03e4 54be d57e b3be a51b babd
00000210: 5e1c 2dbc 7a2a 27be e79b e1bd 504a 47be
00000220: 7fa5 e6bd 76c8 dbbd d804 9abe bea1 a03e
00000230: b814 393d 1f5a 8d3c 1ed0 10be 2b8a 32be
00000240: 9e85 283e a492 363e f7d9 5fbe 5471 a53e
00000250: 3954 85bd 5390 bcbd 041a 06bd bc59 813e
00000260: c109 683e 5916 0dbe 85b6 25be 52c1 9e3e
00000270: 72f6 c53d 82d6 463e 9816 cdbc ae24 1e3e
00000280: 27a5 4ebe 1dbc 4fbd f2ac 8ebe b8e2 273e
00000290: bb98 1ebe 8f33 9d3e 1510 0dbe a923 7d3d
000002a0: 05a7 60be 4eea 483d e614 99bd 4c8d 41be
000002b0: 0c58 53be 3219 a93e eb50 b4be bb46 5b3d
000002c0: 1bd1 28be 6580 02be 2ca2 e13e 99ec a83e
000002d0: e287 16be 8fa6 5ebd b15d a6bd f32f b53c
000002e0: 5c15 2ebe 4549 7a3e ebb4 6b3e 23fd 14be
000002f0: 155c 64bd 50aa 30be d27a 7e3e c0ec bdbd
00000300: 45e7 033e 09c2 c03d 489d f3bd 249b 28be
00000310: cf75 00bc 7f03 03be cd7b 05be cb99 603d
00000320: 7dcb 273e d378 5fbe 5fc9 8dbc 35da 11be
00000330: 3192 92be 824f 56be 982b f43e 6a37 2abe
00000340: 2bc3 22be 3b5e a43c 506f c53d 5cca 8cbe
00000350: d840 4abe 9850 65bd aa70 153e a2d0 ccbd
00000360: 367b 7abd bfad 4fbe aeed 5dbe b086 f93e
00000370: 67ba 863e 5bd0 b2be 3e61 80b8 fda9 0dbd
00000380: 9365 97bd 174e d4bd 0971 893e e32f 923e
00000390: 8b81 1dbd ef35 6abd e2e7 d23d 5d76 0ebe
000003a0: 4f42 903d 2594 663d 846c a5bd 5cce a53d
000003b0: 2236 56bd 534a 8c3e 5b69 d13e 9abf 88bd
000003c0: 024f 963d 3ed0 713e 7776 953d ea59 8bbe
000003d0: 95ef a2bd ae4c 9fbd c3d3 aa3c fb04 f2bd
000003e0: 8360 e5bd a73d 95bd dbbd 923e 9f42 fd3d
000003f0: 5e2b 26be e86b f8bd 94cc d2bd bd66 f2bd
-0.14932708 -0.23131649 -0.17254479 -0.120914444 0.2754955 -0.16152698 -0.041729588 -0.012893988
-0.097632006 0.12576628 -0.13914937 0.19843088 -0.024837583 0.19639944 -0.048585624 -0.092042044
-0.13775225 -0.21890353 0.013676406 0.1982401 0.05109076 -0.26314524 0.15353838 -0.17719427
0.025657974 -0.039457332 0.29132682 0.069626905 -0.15489866 0.045759056 0.3545376 -0.20751181
-0.16624485 -0.083555855 0.2129611 -0.06368052 -0.030380646 0.4134092 0.30746877 -0.28485122
-0.12375667 0.06763885 0.017436525 0.18802208 -0.14384833 -0.17918052 0.038392104 -0.329803
0.17729612 -0.15334931 -0.043581143 -0.2581572 -0.11013119 -0.019545699 0.25111836 -0.24631232
-0.09239789 -0.18331261 0.10194951 0.12692037 0.20370226 0.123794965 -0.0012018362 -0.023490673
-0.110796146 -0.12644058 -0.102996685 -0.21469498 0.19631532 -0.026139097 -0.13905399 0.22423409
-0.14832057 -0.1708441 0.2743154 0.2242937 0.11231015 0.17556813 -0.091640174 -0.06785013
0.11356072 -0.17067249 -0.038532224 -0.032975327 0.18091318 -0.033153545 0.00475976 0.23110856
-0.27783713 0.03994414 -0.082239114 0.28147405 -0.0784524 -0.06287039 0.20349713 -0.009039075
0.16280359 0.13722987 0.118224844 -0.15231176 0.06815913 0.17349291 -0.15525836 -0.063787766
-0.006667859 -0.04704805 -0.12247562 0.24464947 0.18917482 -0.15147796 -0.15761225 0.124974586
0.3472033 -0.19550295 -0.13374002 0.11672246 -0.11326307 0.21597056 0.19187951 -0.24537572
-0.06737034 0.29544783 0.22534196 -0.15059018 0.037103172 -0.18760115 -0.14931674 -0.016905462
-0.134166 -0.20790105 -0.35057703 -0.09087304 -0.010565845 -0.16324797 -0.11016064 -0.19461942
-0.112620346 -0.10731594 -0.3008182 0.313734 0.045185775 0.017254887 -0.1414189 -0.1743552
0.16457221 0.17829376 -0.2186049 0.32313025 -0.06510205 -0.09207215 -0.032739654 0.25263774
0.22659971 -0.13778056 -0.16182907 0.31006867 0.09666146 0.19417766 -0.025035188 0.1544368
-0.20180188 -0.05071651 -0.27866322 0.1639508 -0.1548795 0.307034 -0.13775666 0.061801586
-0.21938713 0.049051575 -0.07474689 -0.18901557 -0.20639056 0.33027035 -0.35217986 0.05353425
-0.16486017 -0.12744291 0.4406904 0.3299301 -0.14700273 -0.05435806 -0.08123339 0.02211759
-0.17000335 0.24442013 0.23018233 -0.14549689 -0.05575188 -0.17252469 0.2485154 -0.09273672
0.12881191 0.09412009 -0.118952334 -0.16465431 -0.007840588 -0.12794302 -0.13035508 0.05483417
0.16386218 -0.21823435 -0.017307935 -0.14243396 -0.2862716 -0.20928767 0.4768951 -0.16622701
-0.15894763 0.020064464 0.09640372 -0.27498138 -0.19751298 -0.055985063 0.14593759 -0.10000731
-0.06115266 -0.20281123 -0.21672699 0.4873557 0.2631409 -0.34924588 -6.1216284e-05 -0.03458594
-0.073924206 -0.10366457 0.2684405 0.2855216 -0.03845362 -0.05718034 0.102981344 -0.1391234
0.07043897 0.056293625 -0.08077338 0.080960006 -0.05229772 0.27400455 0.40900692 -0.0667717
0.07339288 0.23614594 0.07297986 -0.27217036 -0.07955853 -0.07778297 0.020852929 -0.11817356
-0.11200049 -0.0728715 0.28660473 0.123662226 -0.16227481 -0.121299565 -0.102929264 -0.11836002

fc2.bias f4 [10]
00000000: bc4e 92bd 0c45 da3d 2803 7c3d b87a 91be
00000010: 1d42 a4bd 0477 9b3e 4356 553e e22a 30bd
00000020: 0fbb 84bd a435 dbbd
-0.07143924 0.10657701 0.061526448 -0.2841394 -0.080204226 0.3036424 0.20833687 -0.043009646
-0.06480991 -0.107035905
